mnist_classifier.pt (torch, 5679 bytes, 10 tensors)

fc1.weight f4 [16, 3]
00000000: f0c3 40bd 2b8d e13e 2314 16bf 203e dc3e
00000010: c75e d9be ad27 f2be f46d 263e f8af b6be
00000020: 804c dabe 301f db3e 1f70 95bd b02d 00bf
00000030: cfd6 95bd a77b dd3c b7e6 7f3e 89c5 acbe
00000040: fc1b 7fbc 89b1 8e3e d2e8 fcbc 4963 4a3e
00000050: 05c5 3ebe f6f9 1ebe a0a9 843e 7a35 fb3c
00000060: 3f2b bc3e 224f ab3e 7e99 223e 794e 263e
00000070: 5ee5 8cbe 392c 293e 2b75 b4be d291 3a3e
00000080: ac43 9d3e 461d a1be 603e 0d3f 76a9 c7be
00000090: 3b87 de3e f7c2 1c3e 4994 ee3e 6315 263d
000000a0: daf1 d0be 73b9 9f3e fcff 8a3e 6f00 80be
000000b0: 3378 dcbe 7570 c2be 1889 3dbe e6a6 fc3e
-0.04706186 0.44053015 -0.58624476 0.43016148 -0.42455122 -0.47295895 0.16252881 -0.35681129
-0.4263649 0.42797232 -0.07296776 -0.50069714 -0.07316362 0.027036501 0.24990354 -0.33744457
-0.015570637 0.27869824 -0.030872736 0.19764437 -0.18629844 -0.1552504 0.25910664 0.030665148
0.36751744 0.3345881 0.15878865 0.16240872 -0.27518743 0.16520776 -0.35245642 0.18219689
0.30715692 -0.31467646 0.551733 -0.38996476 0.43462548 0.15308748 0.46597508 0.04054774
-0.40809518 0.31196174 0.27148426 -0.2500033 -0.43060455 -0.37976423 -0.18509328 0.49346083

fc1.bias f4 [16]
00000000: fc81 18be 7e59 85be 5a0f a93e 7617 533b
00000010: 6bca 97be 1b39 5e3e dd5d 7abe 3653 cabe
00000020: 6631 8c3e a60c 2dbe 8ad7 383e 1d03 463e
00000030: 5567 e9be 4feb 3cbe 7800 26be 3d11 603d
-0.14893335 -0.2604484 0.33019525 0.0032210029 -0.2964662 0.21701472 -0.24449869 -0.3951661
0.27381438 -0.16899356 0.18050972 0.19337125 -0.4558665 -0.18449138 -0.16211116 0.05470394

fc2.weight f4 [3, 16]
00000000: 6d01 f4bd 08a7 283d ec0b a03d 519e 94bc
00000010: bc36 0cbd fe72 80bd 7e67 01be 7fa2 063e
00000020: e06b 3abe 4abc c93d 3978 4a3e 3045 b3bd
00000030: c8c1 823d eb2b 08bd e729 ba3d c82c 393e
00000040: 59d1 0fbe 483b 82bd 807a bf3b 244e 983d
00000050: 35a1 573c 0d70 bc3d 324d 0f3e fb86 0b3e
00000060: 3dfc 2b3e 8f12 06be 96c2 13bd eb69 333e
00000070: cc8a 29be 8dd3 fcbd 47a5 5fbd 2f4e be3d
00000080: 6973 3b3d fca4 39be 9a7f 2f3e b910 83bd
00000090: 8a0d 963d e241 36bd 8f76 1fbc 8d41 0bbd
000000a0: 5719 583e 9af7 5f3d 2ab3 773d 3870 efbd
000000b0: 7493 9ebd 1635 1cbe 66ba 913c fab4 3cbd
-0.119143344 0.04117492 0.07814774 -0.018141897 -0.034231886 -0.06271933 -0.12637135 0.13147925
-0.18205214 0.098503664 0.19772424 -0.08753431 0.06384617 -0.03324501 0.090900235 0.18083489
-0.14044704 -0.06358963 0.0058434606 0.07436779 0.013160993 0.092010595 0.13994291 0.1362571
0.1679544 -0.13093017 -0.036074243 0.17520873 -0.16556853 -0.123450376 -0.05460098 0.09292256
0.04576436 -0.18129343 0.1713852 -0.06399674 0.07326801 -0.044496424 -0.009732856 -0.03399806
0.21103416 0.05467949 0.0604736 -0.11691326 -0.07742968 -0.15254626 0.017789077 -0.04607103

fc2.bias f4 [3]
00000000: a414 0bbe 6e7a d8bd 76da f1bc
-0.13582093 -0.105702266 -0.029523116

qnn.weight f4 [9]
00000000: c16b 3dbf 3cc0 32bf 3a7a 6c3f 1a8d 1b3f
00000010: 510d 443f 93b9 8f3f e25a 1c3f fcd0 98be
00000020: 425e cf3e
-0.73992544 -0.69824576 0.92374 0.6076218 0.7658282 1.1228508 0.61076176 -0.29846942
0.405016

qnn._weights f4 [9]
00000000: c16b 3dbf 3cc0 32bf 3a7a 6c3f 1a8d 1b3f
00000010: 510d 443f 93b9 8f3f e25a 1c3f fcd0 98be
00000020: 425e cf3e
-0.73992544 -0.69824576 0.92374 0.6076218 0.7658282 1.1228508 0.61076176 -0.29846942
0.405016

fc3.weight f4 [32, 6]
00000000: 6f51 19be ccb8 dfbc a2d0 5a3f e6d8 78bf
00000010: a362 90be a9be 15bf 7747 57bf bc7b 99bf
00000020: aa02 533e c020 663f 7d4b 513e a3c1 ddbe
00000030: dcf3 4abf 9a3e 83bf 443f a43d 20dd 633f
00000040: 679a 083e c086 86be 7851 403f 55a9 a53e
00000050: fad4 43bf 4f1e fb3d 3e54 adbe 9dbb 58bf
00000060: 7048 cd3e 62f4 2a3f 1f99 47bf 0425 303e
00000070: 6397 83bd f915 8e3d c5fd 543f 6cb0 883c
00000080: 37ba 2e3e 4446 76bf b96a 59be 0b00 b43e
00000090: c9e2 e23e 2d85 463c 79c7 063f faee ec3e
000000a0: 530a 4fbe d79e 8abf 0638 963e 8762 93bd
000000b0: 5211 7cbf 533f 2ebf 0a69 dbbd 0610 b33e
000000c0: e0b3 1b3e 9da2 7abe 40e7 dc3d b012 053e
000000d0: 883d 563e 4474 0bbe 8051 c23e a021 d4bc
000000e0: ca17 cf3e 88be 473e d49b 80be 142f 8bbe
000000f0: 0bd3 4abf c565 5e3e 6594 15bf 8e1c fc3e
00000100: 4f87 96be 6fe1 593e 0b64 773f 566e d83e
00000110: bd33 85be 68f5 8a3e a746 8a3e 95cc 76bf
00000120: 8f45 31bf cee1 893f 492a 1a3f 5f8a d7be
00000130: f72d 3bbf c30f b0be 1e85 13bf 3e35 283f
00000140: e982 6abf 43c7 163d e10c 13bf ffa8 363f
00000150: 8ac2 1a3e fe2e 8cbf 8dd7 fbbe e9fb 343f
00000160: 589f 0a3d ee60 cfbd 754a 5f3f 18e1 e73e
00000170: d924 82be 3fe1 e3be 9b33 43bd b9b9 37bf
00000180: 8019 1d3f f180 9a3f 0a02 883d c819 75be
00000190: 5fd2 15bf 8270 fa3e cb08 bb3e 3529 3e3f
000001a0: 6d05 fa3c cd0b a2bf de8f d93e 842a b63e
000001b0: 6a1b 98bf 6ddd 63bf fe8d 8fbe 2da4 7d3e
000001c0: b9ea a63d 9ed6 983f 1195 a33e 5646 b3bc
000001d0: 91b5 703e 15ea e73e 9756 423e 0ca4 863e
000001e0: fa56 f63e 9361 a13f 0f6a 63be bb06 843e
000001f0: f538 3bbf d1d2 acbd 8ad0 2a3e 1e19 3a3d
00000200: 8e39 5c3f cff5 b93c 6ad7 1cbe 67aa 6cbf
00000210: b6c5 bc3e f8b5 023e 402d 90bd 803d 563d
00000220: 241f c13e 3276 bf3e 1009 7dbf 162e 3dbf
00000230: bdaa 3e3f 837f 453f f058 a83e 580a d4be
00000240: 3c95 173e ac8d 71bf 7f54 44bf f6b4 183e
00000250: 0064 893e 472b 5e3d 551f 073f 56c2 623f
00000260: bb51 65bf 8969 89bd 91f1 253e 4a72 b6be
00000270: d86d 873e ea4f 4c3f ec7c 4cbf 2595 2d3e
00000280: ba14 a23d 6663 3c3f 399d 4b3f fb2e 7bbd
00000290: fb8e 18bf b11a 52bf 6807 f53e b957 bdbe
000002a0: 3bd3 943e 9e68 0fbd 1df6 62bf 4f37 10bf
000002b0: be22 e93e 5216 233f 5b9f e0be 92e6 70bf
000002c0: 0190 05bf 2f4a 453f f8f9 a73e 792f 71be
000002d0: 0a10 193f 57f9 273f fb60 303f 6782 51bb
000002e0: 5cf8 3bbf 6839 38bf 4846 11be b1df 1a3d
000002f0: e85f 38bf 6ea0 6cbf 69bc 1abf 9e6c 283f
-0.1497247 -0.027309798 0.854746 -0.9720596 -0.28200254 -0.5849405 -0.8409342 -1.1990886
0.20606485 0.8989372 0.20438953 -0.43311796 -0.7927835 -1.025348 0.080198795 0.89009285
0.1334015 -0.2627468 0.7512431 0.32355753 -0.7649685 0.1226164 -0.33853334 -0.84661275
0.40094328 0.6677915 -0.7796802 0.1720162 -0.06425359 0.06937785 0.8319972 0.016685687
0.17063223 -0.96200967 -0.21232118 0.35156283 0.44313648 0.0121167125 0.5264812 0.46276075
-0.20218782 -1.0829724 0.29339617 -0.07196527 -0.9846393 -0.68065375 -0.10713394 0.34973162
0.15205336 -0.24476095 0.10786295 0.1299541 0.2092191 -0.1361857 0.37952805 -0.02589494
0.40447837 0.19506276 -0.25118887 -0.27184355 -0.79228276 0.2171851 -0.5842956 0.49240535
-0.29400107 0.21277402 0.9663703 0.4227168 -0.26016036 0.27140355 0.27007028 -0.9640592
-0.69246763 1.0772035 0.6022077 -0.42097756 -0.7311701 -0.34387025 -0.57624996 0.6570624
-0.91606003 0.036811125 -0.57441527 0.7135162 0.15113273 -1.0951841 -0.4918789 0.70696884
0.03384337 -0.1012591 0.8722299 0.4528892 -0.25418738 -0.44507787 -0.047656637 -0.71767765
0.61367035 1.20706 0.06641014 -0.23935616 -0.58524126 0.48913962 0.36530146 0.74281627
0.030520165 -1.2659851 0.42492574 0.35579312 -1.1883366 -0.89009744 -0.2803802 0.2476966
0.081502385 1.1940496 0.31949666 -0.021884125 0.23506762 0.45295778 0.18978344 0.26297033
0.48113233 1.2607902 -0.22208427 0.25786385 -0.73133785 -0.084386475 0.16681114 0.04543411
0.8602532 0.022700218 -0.15316549 -0.92447513 0.3686959 0.12764728 -0.07039881 0.052304745
0.3771907 0.37394863 -0.98841953 -0.73898447 0.74479276 0.7714769 0.32880354 -0.41414142
0.14803022 -0.943568 -0.7669143 0.14912781 0.26834106 0.05424049 0.52782184 0.88577783
-0.89577836 -0.06709582 0.16205432 -0.3563407 0.26450992 0.7980944 -0.79878116 0.16951425
0.079141095 0.7358917 0.7953678 -0.0613241 -0.5959317 -0.8207198 0.47857213 -0.3698099
0.29067406 -0.03501188 -0.8865679 -0.56334394 0.4553432 0.63705933 -0.4387158 -0.9410182
-0.5217286 0.7706632 0.328079 -0.23553266 0.597901 0.6561484 0.6889798 -0.0031968595
-0.7342584 -0.71962595 -0.14186966 0.037810985 -0.7202134 -0.92432296 -0.6044374 0.65790737

fc3.bias f4 [32]
00000000: 4aae 003f ebb5 e63e 035b e93e 7469 ae3e
00000010: 39d7 b43e 6019 0d3e fec3 dc3e 4d5e 8f3d
00000020: d867 b3be f41c c2be fd71 2d3e ac00 183e
00000030: 51d1 bc3e 9d47 803e 8114 773e 238d 213e
00000040: a927 933e 10f8 493e 1331 843e 066f 9cbe
00000050: c99d c13c c696 383f 401e afbe 9607 ed3e
00000060: 4ca9 c63e 0519 163f ea7e 853e 5ce2 97bd
00000070: 6b51 4a3e a587 1f3e b1cd 493f 518f a73e
0.50265944 0.45060667 0.4557725 0.3406483 0.35320452 0.13779211 0.4311828 0.07000408
-0.35040164 -0.37912714 0.16938014 0.14844006 0.36878446 0.25054637 0.24128915 0.15776496
0.28741196 0.19723535 0.2581869 -0.30553454 0.023634808 0.7210506 -0.34202766 0.4629485
0.38801038 0.58631927 0.2607339 -0.074162215 0.19757621 0.15579088 0.78829485 0.3272653

fc4.weight f4 [10, 32]
00000000: a775 22bf 3b0b 9a3e 590d 953e 3705 1bbe
00000010: 7804 063e 17cc 8fbf f88f 5cbf e698 dabe
00000020: 43ca 063e abad 1d3e 1e7e b03e e86a 01bf
00000030: 3e4a 46bf fa85 863e e252 553e 0fc1 bbbf
00000040: 6a14 52bf eb3f 8dbf 1588 c13e cf9f c6bd
00000050: 49fb 83bf 233d 30bf 3011 abbd 5785 8ebd
00000060: a2a3 803e f4c1 ef3c 16fa a03e 26b1 54bf
00000070: 340b 5a3e ec70 a23e bc5d 9fbf 3e8d 60bd
00000080: e8f5 e13d e1f4 693e d9ba 8a3e 9235 3a3e
00000090: b256 40be 1e03 0abf cc83 e83e 0888 98be
000000a0: 82b8 08be 7892 6b3d 635e 30be 8808 c73e
000000b0: 5f9d c9bd a44b 1dbf cc89 963d 67b7 f33d
000000c0: e7de 54bf 721f 61be c487 4abe ffd5 433d
000000d0: ff90 f7be 468e 983e 30c6 213c 05bb 4f3e
000000e0: 2f5e e1bc 19fd 653b 04d4 23bf f9a9 b6bd
000000f0: 5081 f4be f391 193e 7060 b43e 17fe 5fbf
00000100: 0964 1bbe 9ff8 87be b568 debe 692b da3d
00000110: 0740 153e febe 85bf 8658 873e 7c3d 8fbf
00000120: e07e 953c 4415 01be 9fac 70bb 638f a63e
00000130: 8863 a53e 32dd 07bc b327 09bf 48d6 223e
00000140: e7fa fb3e 4761 5dbe ec11 a2bf c003 9c3d
00000150: 0f62 0b3f 99c7 bd3e 7644 62bd e24a ecbe
00000160: 0195 7cbf 7450 443e 9b60 2e3e b228 2abf
00000170: 84fc 2fbf f335 fdbe bc4b 083f 3ce4 a7bf
00000180: 276a 03bf f6bf 4abf c0bf 7bbf ca3f 4a3e
00000190: 91e3 ff3d ce99 a3be a184 cbbe 844d 1e3c
000001a0: 0a31 b83d 804e 0ebe 591d 6c3e 9d28 85bd
000001b0: 2412 c33e 2048 a43e 52f4 c1be 5989 eebc
000001c0: 48ab d53e aa88 413e 29d2 3fbf b4f2 67be
000001d0: 24ae c53e 1aa8 ccbe f493 29bd d3ea 77bf
000001e0: e4d8 0bbf f0b1 0a3e 36f9 573e b18e 14be
000001f0: 6123 78bd 2a50 21bf 4c90 683e b57c 8e3e
00000200: 6a9a 093f 442a c33e 5eff 8a3e edd2 29bf
00000210: 49b9 02bf 0f89 d03c 11c4 b63e 60e1 a2be
00000220: fd2c 0ebe 0c22 2bbe a2c7 14bf d7b9 b3be
00000230: 51f7 023f 6164 00bf 1adb e4be 6a97 fabe
00000240: fa6c 903d 5337 eebe e0d3 a1be 609e 2abd
00000250: 12be a7be 5551 e33e a8b3 d3bc 06fa 063f
00000260: 088a cabe 80a7 0ebf 9751 1fbf ef47 b7be
00000270: b525 dbbe aa33 43be 4f76 f63e 7d34 bd3d
00000280: f038 42bf a498 08bf 66f1 10bf af8f df3d
00000290: 21d1 093e 9acd 36bf 58ab 8cbd 4693 e63d
000002a0: cd22 0f3e 58d9 83bd fdfa 6f3d 3e06 413e
000002b0: 725c fdbd 2211 0c3e 5cb5 493e e98c e93d
000002c0: 3e9f 233e e44a fcbe 88d2 a2be 2dae ff3a
000002d0: ba86 cf3d 4669 98be aca8 9fbd 332e 39bf
000002e0: 0438 2d3e 509d 243e e44d 563e 4831 833c
000002f0: a9e8 8d3e f80e 4bbe 245b 0dbd eee8 a2bd
00000300: b13f 22bf 3c2f 1b3f 3a8b 143f ea0a 40bf
00000310: 0713 e4be 6427 05bf fbdd 7abe 4935 ccbf
00000320: f012 42bd d0aa e53c 748a 623d 13f6 27bf
00000330: d62e 0abf 4178 abbe c6b9 043f bf4e 8fbf
00000340: 0773 17bf f631 45bf 7dd9 f03e f4c8 753d
00000350: ab06 2dbf 56ac 40be 2a21 ec3d e1ea 0d3f
00000360: 96bd 9d3e 8aa6 55bf f14c 10bf b1ef 50bf
00000370: 42b2 acbf ad7f 0f3f 6e14 0fbf d014 cabf
00000380: 84c9 363e eeb1 96bf 3683 89bf 1311 ae3c
00000390: cc60 a0bd e4c1 1f3f 56a4 b23d 7aaf a23e
000003a0: ba02 f33d 980a c1bc 1e28 71bf 75bf 5d3e
000003b0: 4f84 00bf 2126 34bf 16ec 06be 96b7 af3e
000003c0: e866 30be c0c9 023f 78b0 2fbf cee3 dfbd
000003d0: 735f 28be 0338 243e 84bb 293d 07e1 6bbf
000003e0: 90f0 773c 5ef7 ac3d 11b6 a2bd 56e3 d03e
000003f0: 7c9e 6e3e baf2 47be 6691 383e 57f8 373e
-0.63460773 0.30086693 0.29111746 -0.15138708 0.13087642 -1.1234158 -0.8615718 -0.42694777
0.13163094 0.1539828 0.3447122 -0.5055375 -0.77457035 0.2627409 0.20832399 -1.4668292
-0.820624 -1.1035131 0.37799135 -0.0969845 -1.0311061 -0.6884329 -0.08352888 -0.06959026
0.25124842 0.029267289 0.314408 -0.8308281 0.21293336 0.31726778 -1.245048 -0.0548222
0.11033231 0.2284732 0.27095678 0.18184498 -0.18783072 -0.53911006 0.45413053 -0.29791284
-0.13351634 0.05751273 -0.17223506 0.38873696 -0.09844469 -0.61443543 0.073505014 0.119002156
-0.8315262 -0.21984652 -0.19778353 0.047811504 -0.4835281 0.29796046 0.009873912 0.20286186
-0.02751073 0.0035093485 -0.63995385 -0.089191385 -0.47754908 0.14997081 0.35229826 -0.87497085
-0.15174879 -0.2655687 -0.4343926 0.10652811 0.14575206 -1.0448911 0.26434726 -1.1190639
0.018248975 -0.12605768 -0.0036723984 0.3253127 0.323025 -0.008292483 -0.535762 0.15902054
0.4921486 -0.2161914 -1.2661719 0.07617903 0.544465 0.37066343 -0.05524107 -0.4615088
-0.9866486 0.19171315 0.1702904 -0.66468346 -0.68744683 -0.49455222 0.5324056 -1.3116527
-0.5133385 -0.7919916 -0.9833946 0.19750896 0.12494577 -0.3195328 -0.39749625 0.009662036
0.089937285 -0.13897133 0.2305807 -0.06501887 0.38099778 0.32086277 -0.37881714 -0.029118227
0.4173224 0.1889979 -0.74930054 -0.22651178 0.3860942 -0.39972 -0.041400865 -0.9684269
-0.54627824 0.1354444 0.2109116 -0.14507557 -0.060580615 -0.63012946 0.22711295 0.2782952
0.5375124 0.38118184 0.27147955 -0.6633747 -0.5106397 0.02545598 0.35696462 -0.31812572
-0.13884349 -0.16712207 -0.58117115 -0.35102722 0.51158625 -0.50153166 -0.4469841 -0.48943645
0.07052036 -0.46526584 -0.3160696 -0.041654944 -0.327622 0.4439799 -0.025842503 0.52725255
-0.39558434 -0.55724335 -0.6223387 -0.35797068 -0.42802206 -0.19062677 0.48137137 0.09238527
-0.7586813 -0.5335791 -0.56618345 0.10916077 0.13458683 -0.71407473 -0.06868619 0.11258559
0.13978119 -0.064379394 0.05858897 0.18850037 -0.12371148 0.1367841 0.1969809 0.114038296
0.15978715 -0.49275887 -0.31801248 0.0019506864 0.10133119 -0.29767817 -0.077958435 -0.7233612
0.169159 0.16075635 0.2092815 0.01601471 0.27716568 -0.19829929 -0.034510747 -0.07954584
-0.63378435 0.6061895 0.5802494 -0.75016654 -0.44545767 -0.5201323 -0.24498741 -1.5953761
-0.04738134 0.028035551 0.05530782 -0.65609854 -0.53977716 -0.33490184 0.5184597 -1.1195906
-0.5915989 -0.7702936 0.4704093 0.060006097 -0.675883 -0.18815741 0.11529763 0.5543652
0.30808705 -0.83457243 -0.56367403 -0.8161574 -1.34919 0.5605419 -0.5589055 -1.5787601
0.1785031 -1.177305 -1.0743167 0.021248376 -0.078309625 0.6240523 0.08722751 0.31774503
0.118657544 -0.023564622 -0.9420184 0.21655066 -0.50201887 -0.7037068 -0.13175997 0.34319752
-0.17226756 0.51089096 -0.68628645 -0.10932122 -0.16442661 0.16036992 0.041438594 -0.9214024
0.015133038 0.08445619 -0.07944883 0.40798444 0.23302644 -0.19526187 0.18024215 0.17965828

fc4.bias f4 [10]
00000000: 1c2f 173e 8f61 c7bd 7152 f3bd 4e40 653d
00000010: 9b63 813e 88a7 3f3d bf67 edbd cd33 8ebc
00000020: 6e29 113e c405 803e
0.14764065 -0.09735405 -0.11880959 0.05596953 0.25271305 0.04679063 -0.115920536 -0.017358685
0.1417596 0.250044
