model4.pt (torch, 5679 bytes, 10 tensors)

fc1.weight f4 [16, 3]
000000 c0 1e df 3d 04 7f c7 be 93 09 f4 3e e3 a7 eb 3e
       0.10894537 -0.38964093 0.47663555 0.46026525
000010 56 75 ce 3e ed ea 07 3f f9 13 a8 3e 37 b5 c6 bd
       0.40323895 0.53092843 0.32827738 -0.09702533
000020 be 2d 9a 3e 61 2b 61 be cf 1a b3 3e fa 5d f4 bc
       0.30113024 -0.21989204 0.3498139 -0.029829968
000030 90 45 6e be c0 86 1a 3d 75 3a 12 bf 2a a5 03 bf
       -0.23268723 0.037726164 -0.5712045 -0.51423895
000040 89 d5 95 3e 2a 0b 45 be 10 37 b5 bd dc 02 e0 be
       0.29264477 -0.1924254 -0.08848393 -0.43752182
000050 20 d1 8b 3d 13 02 cf 3e 27 ab 0b bf 04 65 08 bf
       0.06826997 0.4043127 -0.5455803 -0.5327914
000060 e2 73 64 be e3 cb 81 be 34 82 80 3e 5d 9d d1 be
       -0.22309831 -0.25350866 0.25099337 -0.4094037
000070 02 15 6a be d0 c2 0a 3f 8c d0 c7 be c8 66 2e be
       -0.22859576 0.5420351 -0.39026296 -0.17031395
000080 80 bf 7e 3c 19 87 84 be 11 d8 ba bd ce 2e d3 3e
       0.015548587 -0.2588432 -0.09123243 0.41246647
000090 03 60 0e bf 39 0d b5 3e 28 99 25 bf 02 8a f9 be
       -0.5561525 0.3536165 -0.6468682 -0.48738104
0000a0 5c 71 6c 3e bd 88 bc be 57 6d 24 3e 31 63 be be
       0.23090118 -0.36823073 0.16057335 -0.37185052
0000b0 53 2e a0 3e 78 8c 1c bf 3a b8 93 be fb 67 68 3e
       0.31285343 -0.6115184 -0.2885149 0.22695915

fc1.bias f4 [16]
000000 36 cb 10 3e b3 af 84 3e ea 32 10 3f ac 60 f7 3d
       0.14140019 0.25915298 0.5632769 0.120789856
000010 9a 0c fb be be f5 55 bd b0 9a 09 bd 10 85 97 3e
       -0.49033052 -0.05223631 -0.033594787 0.29593706
000020 b7 a5 eb be 02 2e 4d 3e 10 d0 26 bd bd a2 00 3f
       -0.46024868 0.20037082 -0.040725768 0.5024832
000030 36 21 ed be 53 86 d8 be 2e d0 99 bb 48 f2 db bc
       -0.463144 -0.4228998 -0.0046940064 -0.026848927

fc2.weight f4 [3, 16]
000000 b3 01 45 3e e8 cb 3b 3e 75 bb cd bc ee 79 33 bc
       0.1923893 0.18339503 -0.0251138 -0.010954363
000010 76 f5 55 3e f4 00 bb bd 02 1c 05 be 6c 4e 98 3e
       0.20894417 -0.09131041 -0.12998965 0.2974733
000020 78 d7 31 3d 25 63 9f bd 8a 54 1d be 94 26 c0 3c
       0.043418378 -0.07782582 -0.1536428 0.023455895
000030 c5 cf 1e 3e 6d e0 cd 3d 1a 89 8f 3c c6 d2 6f 3e
       0.15508945 0.100525714 0.01752143 0.23420247
000040 45 48 11 be 49 35 61 3e 7b dc 51 3e 6c 4c 05 3e
       -0.14187725 0.21992983 0.20494263 0.13017434
000050 c0 2c db 3c 1a 71 ec bc ec e2 ca bd b0 01 4f be
       0.026754737 -0.028862525 -0.09906563 -0.20215487
000060 c4 c8 76 3e 8b ab 94 be 04 2f 36 be f8 a3 b0 39
       0.24100024 -0.29037127 -0.17791373 0.00033691502
000070 e2 81 1b be fd 57 3e 3d 51 f1 7d 3d 86 f1 b5 bd
       -0.15186265 0.04647063 0.061997715 -0.088839576
000080 26 55 ed bd 07 10 d7 3d 2a 04 22 be df 12 7b 3d
       -0.115885064 0.10501104 -0.15821901 0.061297294
000090 8c 25 e3 bd 2d 9f 43 be 3c 0f 24 be 9e 97 99 be
       -0.11091146 -0.1910369 -0.16021436 -0.29998487
0000a0 f6 32 28 be 98 6e 0e 3e 3e 93 32 3e 1a 2a 23 3e
       -0.1642569 0.13909376 0.17438981 0.15934029
0000b0 67 d5 5d 3e 6a 5c 72 3d 12 19 10 bc c4 1a 71 bd
       0.21663438 0.059170164 -0.00879504 -0.058863416

fc2.bias f4 [3]
000000 c9 13 05 3d ac 00 0a be 3a 1f 78 3e
       0.03248957 -0.13476819 0.24230662

qnn.weight f4 [9]
000000 fc d4 a0 bf 6c 9d b0 3e ba 45 87 3f b4 05 88 3d
       -1.2564998 0.34495103 1.0568154 0.06641713
000010 54 69 46 3f 46 5d 0c 3f ae 1f 79 bf 8c 09 e3 3e
       0.7750447 0.54829824 -0.97313964 0.4434322
000020 09 00 6f 3f
       0.9335943

qnn._weights f4 [9]
000000 fc d4 a0 bf 6c 9d b0 3e ba 45 87 3f b4 05 88 3d
       -1.2564998 0.34495103 1.0568154 0.06641713
000010 54 69 46 3f 46 5d 0c 3f ae 1f 79 bf 8c 09 e3 3e
       0.7750447 0.54829824 -0.97313964 0.4434322
000020 09 00 6f 3f
       0.9335943

fc3.weight f4 [32, 6]
000000 57 dc 81 3e 59 87 8c bf f2 12 4d 3f 9a f5 19 3f
       0.25363418 -1.0978805 0.80107033 0.60140383
000010 23 c3 0b bf ec d9 23 bf be 85 5a bf 39 1c 90 3f
       -0.5459463 -0.640044 -0.85360324 1.1258613
000020 2f cb 02 3f fd 47 57 bf ec da ed bd 4b 59 af be
       0.51091284 -0.8409422 -0.11614022 -0.34247813
000030 3f eb b1 be 2a 1f 8d 3e 64 d4 50 bf fc 5b f5 be
       -0.3474979 0.2756284 -0.8157408 -0.4792174
000040 12 a9 e0 be f4 b0 67 3f e5 3e 6b bf 0e 19 79 3e
       -0.4387899 0.90504384 -0.91892844 0.24325964
000050 a7 db 6a be ee 02 90 bc be 25 f8 be fa 41 a5 bf
       -0.22935353 -0.017579522 -0.48466295 -1.291076
000060 c4 a5 5a bf 70 62 d1 bd 79 5d df 3e bb 94 88 be
       -0.8540919 -0.102238536 0.43626 -0.26675972
000070 1a f1 33 3f 9e 0f 85 bf 58 20 81 bf fd 7b 4a bd
       0.70289767 -1.0395391 -1.0087996 -0.04943465
000080 58 db 86 be ac 2f 1d bf d0 79 ea 3e eb d2 5c 3f
       -0.2633922 -0.61400867 0.4579606 0.86259335
000090 63 8d 2c bf 9d bc ad 3f 95 cc 88 bf e2 5a c4 3e
       -0.6740324 1.3573185 -1.0687433 0.38350588
0000a0 93 d7 9b 3d ad 14 38 3f b1 3a 00 3f f6 60 83 3f
       0.07609477 0.7190655 0.50089556 1.0263965
0000b0 e3 14 04 bf 99 60 65 be 8e db 38 bf 9a 25 8d 3e
       -0.5159437 -0.2240013 -0.72210014 0.2756775
0000c0 50 42 de be f9 24 57 bf e7 16 0a bf 73 4a 71 3f
       -0.43409967 -0.8404079 -0.53941196 0.94254225
0000d0 0d ed 97 3f e5 43 84 3f 18 43 9c be bd 82 af 3f
       1.1869217 1.033322 -0.30519938 1.3711773
0000e0 c3 b8 7e bf 1b f6 24 3f 9f 8d ef 3e ff fb 00 3f
       -0.99500674 0.6443803 0.46787736 0.50384516
0000f0 8f 60 8d be 62 f5 69 bf 56 d8 c1 be 0e 36 b8 3e
       -0.2761273 -0.9139005 -0.37860364 0.3597874
000100 02 67 93 3f 11 e7 90 be 21 48 46 3f a2 9c 5f be
       1.151581 -0.2830129 0.7745381 -0.21837094
000110 f2 6a 12 be c5 a5 6f bf f7 50 aa 3e 38 4b a1 3f
       -0.14298609 -0.9361232 0.33264896 1.260108
000120 52 a6 66 bf 7c b2 c6 3e e9 de b3 3e 67 7b 5e bf
       -0.90097535 0.38808048 0.35131004 -0.8690705
000130 e9 c5 ce 3e 1a 76 09 bf 49 19 9b 3e 55 24 a3 3f
       0.40385368 -0.53695834 0.3029273 1.2745463
000140 ce 21 85 bf 9d fd ab 3e f3 cc d5 be 50 57 19 3f
       -1.0400941 0.3359193 -0.41757926 0.59898853
000150 ce 10 39 3f 32 2d 2a bf b5 a0 85 bc 30 79 73 3e
       0.72291267 -0.6647521 -0.016311983 0.23776698
000160 04 e3 54 bf 3c b4 8e bd e8 d8 af 3e b4 25 24 3e
       -0.831589 -0.06967971 0.34345174 0.16030008
000170 b0 26 c7 3c 94 0d 87 3d 78 de a2 3d 50 92 c6 be
       0.02431044 0.06594387 0.07952589 -0.38783503
000180 42 43 01 bf d8 ca 1a bf 05 f7 13 3f ac a9 15 3f
       -0.5049325 -0.60465765 0.57798797 0.58462024
000190 91 9e c9 3e d3 8d 06 bf ad fc 12 bf 98 1f 7f 3f
       0.3937879 -0.52560157 -0.574168 0.99657583
0001a0 19 20 ee 3e e3 4c 01 bf fe b5 5c bc 29 3a e1 be
       0.46508864 -0.50507945 -0.013471125 -0.43989685
0001b0 d9 48 a9 3d cd 12 4b be 81 11 a3 3e ba 8a 3e 3e
       0.08265848 -0.1983139 0.31849292 0.18607607
0001c0 33 a4 8c bf 19 29 0e bf 4e 95 64 bf c4 f8 60 bf
       -1.098761 -0.5553146 -0.8929032 -0.87879586
0001d0 e0 4f 08 bf 12 69 be 3e 8d bf 7a 3f b2 b3 a1 3f
       -0.5324688 0.37189537 0.97948533 1.2632964
0001e0 47 20 ba 3e 1b 69 33 bf 7d f2 1f 3f df f3 14 bf
       0.3635275 -0.70082253 0.6247938 -0.5818462
0001f0 91 11 4a bf b7 c6 3f be ad 10 70 bc b6 12 88 3b
       -0.78933054 -0.18728147 -0.014652413 0.004152621
000200 19 74 1e 3f a7 80 2e bf 10 6e 16 3f 8a 2d fb be
       0.618959 -0.6816506 0.5876169 -0.4905818
000210 60 01 94 3e 50 32 47 bf 5e b4 5b 3f 76 40 b1 ba
       0.289073 -0.77811146 0.85822093 -0.0013523239
000220 04 bd 4b bf 42 30 cc be c9 ab cf be 1a c5 34 bf
       -0.7958529 -0.39880568 -0.4056075 -0.70613253
000230 ef ac 01 3f ec f5 b6 3f 1b 69 49 bf 5a 33 ba be
       0.506545 1.4293799 -0.78676003 -0.36367303
000240 00 ec bc 3a 40 c3 b8 3b c4 94 a6 3e 54 5c f1 bd
       0.0014413595 0.00563851 0.32535374 -0.11785188
000250 b8 24 a6 3d d8 0d 0c be 74 39 b9 be 18 89 64 3f
       0.08112472 -0.13677156 -0.36176646 0.8927169
000260 1e 96 72 bf aa d4 c1 be c7 3d 0b bf 10 90 4c 3f
       -0.9476031 -0.37857562 -0.5439114 0.7990732
000270 6e de 1c 3f 27 12 77 be 0a 56 1a be b6 68 c4 3e
       0.612769 -0.24128018 -0.15071884 0.38361138
000280 75 72 86 bf 89 7d 8b bc 6b 8c c2 3e 22 7e e5 be
       -1.050368 -0.017027633 0.37997755 -0.44822794
000290 d6 2f 57 3e 0f 55 53 bf 3e 54 f4 be c7 a0 ac be
       0.21014342 -0.82551664 -0.47720522 -0.33716413
0002a0 1d 12 05 bf da 8f 02 3f f0 39 1d bf 22 86 5f 3e
       -0.51980764 0.5100075 -0.6141653 0.21828511
0002b0 f3 c6 17 bf 0c ef 1c 3f ff 56 9b 3d 64 7a f8 be
       -0.5928795 0.61302257 0.075849526 -0.48530877
0002c0 e5 cf 14 3f 01 5c a9 3f 06 c4 ed be 09 e4 de bd
       0.5812972 1.3231202 -0.46438617 -0.10883338
0002d0 3c 27 b7 3e 3b bb 70 bf 53 92 69 3f 41 ba 66 3f
       0.3577212 -0.9403569 0.912389 0.9012795
0002e0 51 aa 91 be 89 b9 b2 be 86 90 59 bf 27 a7 7f 3f
       -0.28450254 -0.34907177 -0.8498615 0.9986443
0002f0 b7 d8 9a bf 08 b8 79 3f d9 c9 15 be bc 9e dc 3e
       -1.2097386 0.97546434 -0.1462778 0.43089855

fc3.bias f4 [32]
000000 0e fe ef bb 6d 65 8a 3e 9c ee 05 3f ec fc d4 3e
       -0.007323987 0.27030507 0.52317214 0.41599214
000010 3d f6 fe 3e 9d c0 f0 3e 42 15 3a 3e e3 8d ba 3e
       0.4979724 0.47021952 0.18172172 0.36436376
000020 2f 56 53 3f 85 8c 82 3e 67 e1 09 3f cc 0e c6 3e
       0.8255338 0.25497833 0.5385956 0.38683164
000030 06 d5 7e 3e 6f 58 74 3e f9 f7 36 3e 28 98 c4 be
       0.2488595 0.2386186 0.17868032 -0.38397336
000040 ea df b9 3e 96 35 af 3e c8 22 fe 3e d3 81 12 3f
       0.36303645 0.3422057 0.4963591 0.57229346
000050 e7 5f 04 3e 8e 4a 04 3f 9b c3 77 3d 15 7c 7c 3e
       0.12927209 0.5167626 0.06048928 0.24656709
000060 73 4a c2 be d6 1c 38 3f 0a 34 8f 3e eb dd 74 be
       -0.37947425 0.71919 0.2796939 -0.2391278
000070 31 1a 28 3f 7e f0 54 3e 99 fb 19 3e 82 43 a5 3e
       0.65664965 0.20794865 0.15037383 0.32278067

fc4.weight f4 [10, 32]
000000 29 5c b6 bf 2a 51 cd be 3f 22 ca 3e ac 34 0a be
       -1.4246875 -0.40100986 0.39479253 -0.13496655
000010 70 fd ca 3e bb 2e 2d 3f 64 db 1e bf fd 00 5e bf
       0.39646482 0.6764943 -0.62053514 -0.8672026
000020 75 2a e7 3e f9 c6 11 bf d7 ea 3c 3f 4a 05 da 3e
       0.4514958 -0.56944233 0.7379584 0.4258216
000030 d6 ef cc 3d 99 e0 72 bf a0 61 12 bf 20 74 1b bc
       0.100066826 -0.9487396 -0.57180214 -0.009488136
000040 d6 50 f9 3e a7 51 15 bf b4 af 3a bf 17 b4 09 3f
       0.48694485 -0.58327717 -0.7292435 0.5379042
000050 67 95 98 be 8d 5a f2 3d 9b 93 b3 bf d4 56 c4 bf
       -0.29801485 0.118336774 -1.4029421 -1.5338998
000060 00 38 44 b9 fe 24 9e bc 49 97 9e bf 59 a3 8a bf
       -0.00018712878 -0.019304749 -1.2389919 -1.08311
000070 ba 6b e0 bd 85 5e a9 bf 27 b7 4a bf 30 5b 6f be
       -0.10958047 -1.323197 -0.7918572 -0.23374629
000080 f2 fc 9b 3d ff 0c 9c be b2 16 69 be ff f3 b4 bd
       0.07616605 -0.30478665 -0.22762564 -0.08835601
000090 3a 1f cb bd da 97 1b be bd 0a dc bf 30 84 cd bd
       -0.09918065 -0.15194646 -1.7190777 -0.100349784
0000a0 eb e4 0d 3f a1 d3 96 bf 48 76 76 3e 4e 2c 4b be
       0.55427426 -1.1783334 0.24068558 -0.1984112
0000b0 ae 27 10 bf 2a 25 27 bf 95 8a 84 b9 53 09 c4 bd
       -0.56310546 -0.6529108 -0.00025280254 -0.09572091
0000c0 da 44 9b 3e 36 c3 88 be 21 e5 fd 3b 08 f4 7b 3e
       0.30325967 -0.26711434 0.0077482616 0.2460481
0000d0 28 f5 2d be 68 4a 40 bd 8e fa e8 bd f3 24 fb 3e
       -0.16988051 -0.04694596 -0.113759145 0.49051628
0000e0 62 ea dc 3d 79 7a a7 be c8 d8 56 38 b8 b0 6b bf
       0.107868925 -0.32710627 5.122347e-05 -0.92066526
0000f0 58 da 2d 3e e9 6c 09 3f 72 94 95 3e 93 e8 0a bf
       0.16977823 0.5368181 0.29214817 -0.5426113
000100 4d 61 b7 3e 0c 85 82 bf 2b 47 21 bf f3 59 1a 3d
       0.35816422 -1.0196853 -0.6299922 0.03768344
000110 7c 9a 54 be 14 c1 86 bf 50 94 24 bf 8c a0 2f bf
       -0.20762056 -1.0527673 -0.64288807 -0.6860435
000120 59 f5 af bf 37 96 fd be ac f3 a7 be d3 2c ae be
       -1.3746749 -0.49528667 -0.32803094 -0.34018573
000130 66 eb a1 bf ba c1 10 bf 17 30 96 3e 70 9b ea bc
       -1.2649963 -0.56545603 0.29333565 -0.028638572
000140 bd 79 10 3e 60 6b 9a bf 07 58 8e 3e b0 67 a7 bf
       0.1410894 -1.2064018 0.27801535 -1.3078518
000150 52 b4 62 3e 49 c6 70 be 74 d1 71 3e be 2f 11 3f
       0.22139099 -0.2351314 0.23615056 0.56713474
000160 2d 85 a7 bd 54 3f 50 bf 7e c9 a6 3e 70 49 1c be
       -0.08179698 -0.8134663 0.325756 -0.15262389
000170 00 ed b6 be 9b 32 d8 3e d2 98 b7 3e eb 39 31 bf
       -0.35727692 0.4222611 0.3585878 -0.69229
000180 0e 3a 06 be 45 11 c3 bd 7a cd c8 3d 9d cd bd bc
       -0.13108084 -0.09524778 0.098048165 -0.023169333
000190 ab 78 6a bd 3f 7a ea be c6 c4 3a bf 27 80 ab 3e
       -0.057243984 -0.4579639 -0.729565 0.3349621
0001a0 bb 60 ad bf 10 64 1c bf 2a fd 95 be a8 c9 79 3e
       -1.3545145 -0.61090183 -0.2929471 0.24393332
0001b0 7c b2 99 3c d8 e6 e6 3c b1 d5 89 3e 2d d7 1c 3e
       0.018761866 0.028186247 0.26920846 0.15316458
0001c0 2b aa e0 be 33 23 64 bd 27 7a 3f 3e 92 de 6d bf
       -0.43879828 -0.05569763 0.18698941 -0.9291774
0001d0 e3 6e 4a 3e 7b 07 78 3e e0 00 bc bb f3 a6 98 bf
       0.19768862 0.24221604 -0.005737409 -1.1925949
0001e0 e3 7b 07 3e 9d 49 19 bd a9 6a 88 3e 43 1f ab 3e
       0.13230853 -0.03742372 0.26643875 0.33422288
0001f0 70 60 1d be 04 47 6c bf 02 4a ea bd 2a 4c fa be
       -0.15368819 -0.9229586 -0.11439897 -0.48886234
000200 eb dc b3 be 90 56 80 be 92 18 d5 3c 4a 1e 3b 3f
       -0.35129485 -0.25066042 0.026012693 0.7309309
000210 3c 9f 6e 3e 38 e3 5c bd d1 c9 25 3e 4a 16 fc bd
       0.2330293 -0.05392763 0.16190268 -0.12308939
000220 d1 b0 6a 3e ef 41 fe 3d 65 33 2f 3e 73 9c 4f bf
       0.22919013 0.124149196 0.17109449 -0.810981
000230 59 ac e7 be 15 43 2f 3e 18 70 91 be c4 77 2e be
       -0.45248678 0.17115434 -0.28405833 -0.17037874
000240 77 d3 22 3e cf 64 56 bd ac 8c 05 be c4 c4 6a b8
       0.1590098 -0.052342232 -0.13041943 -5.59732e-05
000250 8a 05 09 bf 61 6d a4 be 11 a0 30 bf da 2b 83 3e
       -0.53524077 -0.321147 -0.6899424 0.25619394
000260 ff 81 22 3e 7b e2 e8 3d 3a 00 8b be d4 0f 23 bf
       0.15869902 0.11371323 -0.2714861 -0.63696027
000270 9e d9 4b 3e f0 4d e8 38 26 2e 70 be 15 f8 e1 3e
       0.19907233 0.00011077139 -0.23455104 0.44134584
000280 55 40 74 3d 3f 86 ef 3d 02 97 62 3d d5 77 cd 3c
       0.059631664 0.11695527 0.055319794 0.025081554
000290 eb e4 50 3c bb 6e 60 bc 07 9b 01 bf 17 33 d7 3d
       0.012749891 -0.013698275 -0.5062718 0.105077915
0002a0 75 05 89 bf b4 d2 09 bf 76 9e 46 bf c2 0f e3 bc
       -1.070479 -0.5383713 -0.7758554 -0.027717475
0002b0 1d c8 a6 be b1 d3 4f be b1 27 04 3e 02 dd 69 bd
       -0.3257455 -0.20295598 0.12905766 -0.057095535
0002c0 e5 73 24 be 24 c8 33 3e 50 ed 05 3e 84 54 39 bf
       -0.16059835 0.17556816 0.13078809 -0.72394586
0002d0 7a 5f 4d 3e 9c 95 ac 3d ae 65 40 3d 62 4a 9e be
       0.20055953 0.08426973 0.04697197 -0.30916125
0002e0 94 25 18 be cd 7e 79 bd a7 10 40 bd a6 a0 7f 3e
       -0.14858085 -0.060911942 -0.04689088 0.24963626
0002f0 a8 55 5f bc 9e 24 88 be 28 3f f2 3c 6e ac a7 be
       -0.013631262 -0.26590437 0.02957113 -0.3274874
000300 02 37 67 bf d6 20 d3 bf ba be 9e 3e 9c a8 fe be
       -0.9031831 -1.6494396 0.31004888 -0.49738014
000310 17 99 48 bf dc 2c e4 3e f6 7e 29 3f 6c 1e 23 3e
       -0.78358597 0.44565475 0.6620935 0.15929574
000320 69 1e ce 3e ca de 36 3f 53 17 61 3b ab cd 1b 3e
       0.40257576 0.714337 0.0034346178 0.15215175
000330 8b a5 c1 bf de 5a 3d 3f 96 12 4b bf 4e a2 d7 3d
       -1.5128645 0.7396678 -0.79325235 0.10529004
000340 de d7 59 bf 61 2e e0 bf c7 9c 75 bf ee ed a9 3e
       -0.8509501 -1.7514154 -0.9594235 0.33189338
000350 fc af 3e bf 30 f0 64 bf 8c 51 93 bf f3 1d 8a bf
       -0.7448728 -0.89429 -1.1509261 -1.079039
000360 b0 33 d8 bc 9f 19 ae 3e ce c5 89 bf 40 f1 b6 bf
       -0.026391834 0.34003922 -1.076349 -1.4292374
000370 01 42 82 3e 23 84 88 bf 15 c8 09 bf 3d e8 00 3f
       0.25440982 -1.0665325 -0.53820926 0.5035437
000380 5a c6 84 bd 9d cf f1 3e fb 73 85 bf 90 ac 6e 3d
       -0.06483145 0.4722871 -1.042602 0.058270037
000390 ff c2 f1 3e 8f a4 f2 bc 1d a5 15 bf c2 fa 2e bf
       0.47219083 -0.029619483 -0.5845507 -0.68351376
0003a0 98 ef 58 bf 61 cb 91 be 2c eb 79 bc 8e 36 fe bd
       -0.8474059 -0.28475478 -0.015253823 -0.12412749
0003b0 bd c0 08 3f ea b6 80 bf d3 a7 a5 be 13 fb 15 be
       0.53419095 -1.0055821 -0.32354602 -0.14646558
0003c0 a4 f3 91 3e 7d 9b 0b 3f 9c df 13 3d 66 88 7d bf
       0.28506196 0.5453413 0.036101922 -0.9903625
0003d0 9e 7c 08 3e c7 d1 c2 3e 4a fc d4 3a 2b 6b c2 be
       0.13328788 0.38050672 0.0016249504 -0.37972388
0003e0 ce bd cd 3d 68 34 87 bf 59 f3 0d bf 43 16 42 bd
       0.10045968 -1.0562868 -0.55449444 -0.04738451
0003f0 04 65 59 bf 00 f0 df be 1c 18 25 3d 38 5b cc be
       -0.8491976 -0.43737793 0.040306196 -0.39913344

fc4.bias f4 [10]
000000 0e 79 8c 3e 69 61 d3 bd bb 98 17 be b7 fe 85 bc
       0.27436107 -0.10321314 -0.14804356 -0.016356809
000010 50 7e 2c 3e d7 f8 d6 bd 83 7a 2b be 65 4c ae 3c
       0.1684506 -0.10496681 -0.16745953 0.021276662
000020 da 2e a3 3c 12 06 32 3d
       0.019919802 0.04346282
